checkpoints/ecgcnn_localization.pt (torch, 433225 bytes, 34 tensors)

backbone.features.0.weight f4 [64, 12, 7]
0	0x3d01e7ea	0.03171531
1	0x3d6aed6c	0.05735533
2	0x3d8f7daf	0.07006394
3	0x3df98beb	0.1218489
4	0x3bd87eee	0.006606928
5	0xbc8575c7	-0.016291512
6	0x3b267d89	0.0025404415
7	0xbdb09dfd	-0.08623884
8	0xbd894c32	-0.06703986
9	0xbd6dcd5f	-0.058057185
10	0x3d393543	0.04521681
11	0x3d12ab6c	0.035808012
12	0x3d62bd60	0.055356383
13	0x3cfc3461	0.030786695
14	0x3d9e4042	0.077271
15	0xbdb5d846	-0.088791415
16	0xbd7790d6	-0.06044086
17	0xbe0f4be5	-0.13993795
18	0xbd77516f	-0.060380396
19	0xbd8fd341	-0.07022715
20	0xbdb62e5a	-0.088955596
21	0x3dba19b0	0.09086931
22	0xbdcebd73	-0.10094728
23	0x3d8f42b8	0.069951475
24	0x3b402c3d	0.0029323243
25	0x3dda45a5	0.10657815
26	0xbcf4b0b7	-0.02986942
27	0xbe0697a7	-0.13143788
28	0x3d8fb1d9	0.070163436
29	0x3cd5f9bd	0.026120061
30	0x3e00269a	0.12514725
31	0xbcd7bd06	-0.02633525
32	0xbcd59a76	-0.02607463
33	0xbd89a273	-0.06720438
34	0x3db23706	0.08701901
35	0xbd2a5455	-0.04158433
36	0xbd97a082	-0.07403661
37	0x3d9d56ca	0.07682569
38	0x3ce6aa2b	0.028157314
39	0x3cf075f7	0.029353125
40	0x3cf4fb61	0.029905023
41	0x3cbebcf7	0.023283465
42	0x3e53a3d4	0.20667964
43	0x3cecb335	0.028894046
44	0x3d842239	0.0645184
45	0x3b04882e	0.002022277
46	0xbd978f0f	-0.07400333
47	0xbdf8399d	-0.12120364
48	0xbcb9aa37	-0.022664173
49	0x3d41426d	0.04718249
50	0x3dd183d5	0.10230223
51	0xbd9bfc44	-0.07616475
52	0xbbe1e4a5	-0.0068937116
53	0x3d961864	0.07328871
54	0xbd2f9383	-0.042865288
55	0xbc9f0628	-0.019412115
56	0x3d74526d	0.05964892
57	0xbd1d3c04	-0.038387313
58	0xbe053823	-0.13009696
59	0xbdb2d6e7	-0.087323956
60	0xbdecb981	-0.115588196
61	0xbd81589c	-0.06315729
62	0xbe110171	-0.14160706
63	0xbd575f25	-0.05258097
64	0xbd9d6ecf	-0.07687151
65	0xbdb5891a	-0.08864041
66	0x3cdb2ede	0.026755746
67	0xbd6a50b4	-0.05720587
68	0xbdd610f5	-0.10452453
69	0xbd3fbf00	-0.04681301
70	0xbe3b8c10	-0.18315148
71	0xbc5c6af7	-0.013453237
72	0xbe00bfb6	-0.12573132
73	0xbd8a8f0a	-0.06765564
74	0xbe2eea5c	-0.17081589
75	0x3b82469d	0.003975703
76	0x3cbbde2b	0.022933086
77	0xbc7249d3	-0.014788109
78	0xbc82a4fe	-0.015947815
79	0xbc338850	-0.010957792
80	0xbcfd1f35	-0.03089867
81	0xbc680765	-0.014161919
82	0xbcb721f0	-0.02235505
83	0x3d0a3627	0.03374305
84	0xbcbf9303	-0.02338553
85	0xbe28352a	-0.1642653
86	0xbe15faf2	-0.1464651
87	0xbd962185	-0.07330612
88	0x3d97f557	0.07419842
89	0xbbd7a747	-0.0065812203
90	0xbc950b37	-0.018193824
91	0x3cfb5aa7	0.030682875
92	0xbd5b535b	-0.05354629
93	0xbda0793e	-0.07835625
94	0xbc694f1e	-0.014240054
95	0xbd2ca478	-0.042149037
96	0xbda9fd13	-0.08300223
97	0x3ced5398	0.028970525
98	0xbdf5ed2a	-0.12008126
99	0xbaecdc72	-0.0018071069
100	0x3da9b174	0.082857996
101	0x3df233db	0.11826297
102	0x3b32f6d6	0.002730777
103	0x3c84d31e	0.01621395
104	0x3c2f9502	0.010716679
105	0xbcaaf0c1	-0.020866754
106	0xbc5f49e3	-0.013628456
107	0x3e313333	0.17304687
108	0xbc91e729	-0.017810421
109	0x3dab1c08	0.08354956
110	0xbd4351ae	-0.047685318
111	0xbd9cb8ad	-0.076524116
112	0xbd41adc8	-0.04728487
113	0x3d7ddf2a	0.061980404
114	0x3c7aac26	0.015299832
115	0xbda611dd	-0.08108876
116	0xbda93857	-0.08262699
117	0xbd9ae8c2	-0.07563926
118	0x3e15b785	0.14620788
119	0xbc777bc0	-0.015105188
120	0xbde1e8e6	-0.1103075
121	0xbd43a6ad	-0.047766376
122	0x3dc7a6e3	0.09748628
123	0x3dc67041	0.096893795
124	0x3d7a516c	0.061112806
125	0xbd8f74d2	-0.070047036
126	0x3cc7aa4e	0.0243732
127	0xbd827846	-0.063705966
128	0xbd00dd07	-0.031460788
129	0x3d44ede2	0.048078425
130	0xbced05b8	-0.028933391
131	0xbcb9b53c	-0.022669427
132	0xbd764fa6	-0.060134552
133	0x3d1e47b0	0.038642585
134	0x3dcaa160	0.09894061
135	0x3d1c5c86	0.038174175
136	0xbe1c70de	-0.1527743
137	0xbbe8973e	-0.0070981076
138	0xbd9d734a	-0.07688005
139	0x3bf3787f	0.0074301357
140	0x3e0f0474	0.13966542
141	0x3e26587c	0.16244692
142	0x3da87816	0.082260296
143	0xbcc75e51	-0.024336966
144	0xbe2c81d8	-0.16846406
145	0xbd9306e9	-0.071790524
146	0xbdfc647b	-0.12323853
147	0x3d7a0d47	0.06104782
148	0x3ca9152f	0.020639984
149	0xbdbdd680	-0.09269428
150	0xbde72e6c	-0.11288151
151	0xbcb4c331	-0.02206573
152	0xbdd4d676	-0.10392468
153	0x3d2a9735	0.04164811
154	0xbd97a4d4	-0.07404485
155	0x3b22070b	0.0024723436
156	0xbe0046f3	-0.12527065
157	0x3c89fb0f	0.016843347
158	0xbd197992	-0.037469454
159	0x3d84e58b	0.06489094
160	0x3d620dea	0.05518905
161	0x3d981db7	0.07427543
162	0x3cd668b3	0.026172971
163	0xbdcec77a	-0.10096641
164	0x3cd1e9e0	0.025624216
165	0x3d5f83b9	0.05456898
166	0xbd47bd35	-0.048764426
167	0x3ced0123	0.028931206
168	0xbc7c408b	-0.015396248
169	0xbd2c7269	-0.042101298
170	0xbc757327	-0.014981068
171	0xbd0a6064	-0.03378333
172	0x3d108c65	0.03529014
173	0x3dcfbf02	0.10143854
174	0x3bed7daf	0.0072476487
175	0x3d6e9e2e	0.05825632
176	0xbd16542e	-0.036701374
177	0xbe0a23d6	-0.13490233
178	0xbd952882	-0.07283117
179	0x3d3757ed	0.044761587
180	0x3db05790	0.08610451
181	0xbd8b9ce6	-0.068170354
182	0x3cd14664	0.02554626
183	0xbc07c2ea	-0.008286217
184	0x3da3dd6b	0.080012165
185	0x3dbbc310	0.091680646
186	0x3cd715c4	0.026255496
187	0xbd703a42	-0.05864931
188	0x3c375a61	0.011190982
189	0x3d420bef	0.047374662
190	0x3c191e0a	0.009345541
191	0xbaff3ef3	-0.0019473716
192	0x3d08d8d2	0.0334099
193	0xbe06ce8a	-0.13164726
194	0xbda5bc0c	-0.08092508
195	0xbd1d0452	-0.0383342
196	0x3d09ea39	0.033670638
197	0xbd9fc7bb	-0.078017674
198	0x3d46b94b	0.048516553
199	0xbd9cb5b4	-0.076518446
200	0x3dca27ee	0.09870897
201	0x3d8fd4cb	0.07023009
202	0x3c62ae7b	0.013835545
203	0xbd388d3a	-0.04505656
204	0x3d92c8be	0.07167195
205	0xbc987a74	-0.018613078
206	0xbaa7149f	-0.0012747234
207	0x3d9de223	0.07709148
208	0xbd527b78	-0.05138728
209	0xbdde1116	-0.10843103
210	0x3d8f9c15	0.07012192
211	0x3d811492	0.063027516
212	0x3e47b7b9	0.19503678
213	0x3a0546f4	0.000508412
214	0xbce7b0b0	-0.028282493
215	0xbe00014c	-0.12500495
216	0xbd2afa9f	-0.041742917
217	0x3c953e2b	0.01821812
218	0x3d485d05	0.048916835
219	0x3d9da662	0.07697751
220	0x3e1fb835	0.15597613
221	0xbc8f0860	-0.017460048
222	0x3ce0b8a5	0.027431795
223	0xbd4862ce	-0.048922352
224	0xbdb4c14f	-0.08825933
225	0xbd8bca4b	-0.06825694
226	0xbc958400	-0.018251419
227	0x3d67b91e	0.056573026
228	0x3d0fb89d	0.03508817
229	0x3d1ae0fc	0.037812218
230	0x3d66cc31	0.056347076
231	0x3cc63686	0.02419592
232	0x3dbfe23b	0.09369322
233	0xbdc107f8	-0.09425348
234	0xbd826c08	-0.063682616
235	0xbdf4023d	-0.119144894
236	0xbc68afbc	-0.014202055
237	0xbd4235d1	-0.047414605
238	0x3c21d3a8	0.009877123
239	0xbdda1f2f	-0.10650479
240	0xbe021a85	-0.12705429
241	0xbe85994e	-0.26093525
242	0xbe717d58	-0.23582971
243	0xbd979209	-0.07400901
244	0xbc962cb8	-0.01833187
245	0x3d8715ab	0.0659593
246	0xbd645197	-0.055741873
247	0x3c27e9cc	0.010248613
248	0x3d47a89a	0.048744775
249	0xbd8c4747	-0.068495326
250	0xbd8d2f34	-0.06893769
251	0xbd221c5e	-0.039577834
252	0xbda636b1	-0.081159
253	0x3d0ef0d0	0.034897625
254	0x3d775572	0.06038422
255	0x3bd6e981	0.0065585976

backbone.features.0.bias f4 [64]
0	0x3c45fd8c	0.012084376
1	0xbc4c4d5e	-0.012469618
2	0xbda67d1f	-0.08129334
3	0x3de21316	0.110387966
4	0xbd8991e1	-0.06717277
5	0x3cde5616	0.027140658
6	0x3da1892b	0.07887491
7	0xbd2f597d	-0.042809952
8	0xbc85bb22	-0.016324583
9	0x3b9a59c9	0.0047104103
10	0x3db41507	0.08793073
11	0xbe314886	-0.17312822
12	0xbd5d3e76	-0.054014646
13	0xbccf95af	-0.02533993
14	0x3dc7aa51	0.09749282
15	0x3bbb6ee9	0.0057200086
16	0x3e15ed37	0.14641272
17	0x3e1615e2	0.14656785
18	0x3d29386f	0.041313585
19	0x3b8ce903	0.004300238
20	0x3d85ce70	0.065335155
21	0x3d874f99	0.06606979
22	0xbd9c7b0c	-0.07640657
23	0xbdae5f82	-0.085143104
24	0x3c580a58	0.01318606
25	0x3d9ee2ec	0.07758126
26	0x3dacc8cf	0.08436739
27	0x3d366991	0.04453427
28	0x3da97ceb	0.08275779
29	0x3da80191	0.08203424
30	0xbc109667	-0.008824921
31	0x3d95878b	0.073012434
32	0x3d9658f9	0.07341189
33	0x3d138c1f	0.0360223
34	0x3d1e31b9	0.038621638
35	0x3d1d041d	0.038334
36	0xbca9a530	-0.02070865
37	0x3d957cc5	0.072991885
38	0xbd4f002b	-0.05053727
39	0xbdb50195	-0.088381924
40	0xbd10777e	-0.035270207
41	0x3dc30867	0.09523087
42	0x3d934810	0.07191479
43	0xbd475097	-0.04866084
44	0x3da8f5ea	0.082500294
45	0x3de25570	0.11051452
46	0x3da52a0a	0.08064659
47	0xbd6334db	-0.05547033
48	0xbdfc20c8	-0.1231094
49	0xbc26281e	-0.010141401
50	0xbd1a43fb	-0.037662487
51	0xbd846ff3	-0.06466665
52	0xbc15c088	-0.009140141
53	0x3d14a4c4	0.036289945
54	0xbdd9453b	-0.10608908
55	0x3d88629a	0.06659432
56	0x3db2b69c	0.08726236
57	0xbda5b41e	-0.08090995
58	0x3d367f8e	0.04455524
59	0xbe0dd7ba	-0.13851824
60	0x3cac9883	0.021068817
61	0xbd96c41e	-0.07361625
62	0x3da6a9d3	0.0813786
63	0xbd20ba94	-0.039240435

backbone.features.1.weight f4 [64]
0	0x3f684a83	0.90738696
1	0x3f739766	0.9515289
2	0x3f8833b0	1.0640774
3	0x3f741e94	0.9535916
4	0x3f7428e7	0.9537491
5	0x3f6fd6ef	0.9368734
6	0x3f601f75	0.87548
7	0x3f814320	1.009861
8	0x3f6a987f	0.9163894
9	0x3f7d927a	0.9905163
10	0x3f68f613	0.9100048
11	0x3f7bb5aa	0.9832407
12	0x3f700ebc	0.9377248
13	0x3f889d44	1.0672994
14	0x3f670add	0.9025095
15	0x3f7f58f3	0.997451
16	0x3f6bf28e	0.92166984
17	0x3f7f8c33	0.998233
18	0x3f74b8b5	0.9559434
19	0x3f7c31b7	0.9851336
20	0x3f740013	0.95312613
21	0x3f83d90f	1.0300616
22	0x3f6e2d43	0.93037814
23	0x3f7fd18e	0.9992913
24	0x3f741dc4	0.9535792
25	0x3f82aa33	1.0208191
26	0x3f6c956c	0.924155
27	0x3f6c5a12	0.92324936
28	0x3f80a035	1.0048891
29	0x3f81cc6e	1.0140512
30	0x3f586b87	0.84539074
31	0x3f655a7d	0.895912
32	0x3f84781e	1.0349157
33	0x3f84c5b9	1.037284
34	0x3f6c485b	0.92297906
35	0x3f6410cd	0.89088136
36	0x3f551e59	0.8324943
37	0x3f7fa90f	0.9986734
38	0x3f81a50f	1.0128497
39	0x3f78e382	0.9722215
40	0x3f7867f9	0.9703365
41	0x3f856b67	1.0423402
42	0x3f88d4a0	1.0689888
43	0x3f7a1b78	0.97698164
44	0x3f627a2f	0.8846769
45	0x3f7ee33e	0.99565494
46	0x3f8413f5	1.031859
47	0x3f715145	0.9426463
48	0x3f817c37	1.0116032
49	0x3f779a65	0.9671996
50	0x3f88dd24	1.0692487
51	0x3f741824	0.95349336
52	0x3f6815ad	0.90658075
53	0x3f70b389	0.9402395
54	0x3f5649a5	0.8370612
55	0x3f82d827	1.0222214
56	0x3f67e2e6	0.90580595
57	0x3f7e9370	0.9944372
58	0x3f79604a	0.9741255
59	0x3f7ab11b	0.9792649
60	0x3f665def	0.8998708
61	0x3f5d631c	0.86479354
62	0x3f70bebf	0.94041055
63	0x3f6cd6e2	0.92515385

backbone.features.1.bias f4 [64]
0	0xbeac4142	-0.33643538
1	0xbda0cbd0	-0.07851374
2	0xbe8c9030	-0.27453756
3	0xbeb21599	-0.34782103
4	0xbea21c3d	-0.3166217
5	0x3daa2dbc	0.083095044
6	0x3e1fc764	0.15603405
7	0xbe950855	-0.2910792
8	0x3e04b180	0.12958336
9	0xbe87e40d	-0.26541176
10	0xbed25450	-0.4107995
11	0x3e4a0e0a	0.19731918
12	0xbdaf92a6	-0.08572893
13	0x3e0419d2	0.12900475
14	0xbc4b937d	-0.012425301
15	0xbee335ef	-0.44377086
16	0x3e1f4007	0.15551768
17	0xbdd34485	-0.103158034
18	0xbe8d6a68	-0.27620244
19	0xbdc506e7	-0.09620457
20	0x3d00a3f1	0.031406347
21	0xbefa65cf	-0.489058
22	0x3d457737	0.048209395
23	0x3df7e1af	0.121035926
24	0xbdf7ad81	-0.1209364
25	0xbec08a2e	-0.37605423
26	0xbe2fb17e	-0.17157552
27	0xbe929ac5	-0.28633705
28	0xbed1c861	-0.4097319
29	0x3abd7d70	0.0014456939
30	0xbe954e09	-0.291611
31	0x3e5e52ce	0.21711275
32	0xbe718003	-0.23583989
33	0xbe73a16e	-0.2379205
34	0xbdd2069d	-0.10255168
35	0xbda92c00	-0.082603455
36	0x3d866a43	0.065632366
37	0xbd580059	-0.052734707
38	0xbe9e6b47	-0.3094122
39	0xbe1191ab	-0.14215724
40	0xbe92391e	-0.28559202
41	0x3e0b6f87	0.13616763
42	0xbea276a0	-0.3173113
43	0x3e00d3f1	0.12580849
44	0x3e62892a	0.22122636
45	0xbd1aa334	-0.0377533
46	0xbe3415d0	-0.17586446
47	0x3e5723d6	0.21009764
48	0x3dd27d1d	0.1027777
49	0x3d7b93b7	0.06142017
50	0xbeb0efb2	-0.34557873
51	0xbd22de4d	-0.039762784
52	0xbf01402f	-0.5048856
53	0xbe06827c	-0.13135713
54	0x3cd47efb	0.025939455
55	0x3dfba0c6	0.122865245
56	0xbe586479	-0.21132077
57	0xbe9a4e20	-0.3013773
58	0xbd97f54c	-0.074198335
59	0xbe8a8f2e	-0.27062362
60	0x3db3c256	0.08777301
61	0xbeff8662	-0.49907213
62	0xbce91713	-0.028453385
63	0x3bdc7efa	0.006729004

backbone.features.1.running_mean f4 [64]
0	0x3c5ce4ea	0.013482312
1	0xbc35dc78	-0.011099927
2	0xbda44365	-0.08020667
3	0x3de1f8a6	0.11033754
4	0xbd8aa9e8	-0.06770688
5	0x3cd55826	0.026043009
6	0x3d9ac01f	0.075561754
7	0xbd1f89c9	-0.03894976
8	0xbc842b60	-0.016133964
9	0x3b763bb6	0.0037572212
10	0x3db51e5d	0.08843682
11	0xbe3186a4	-0.17336518
12	0xbd622862	-0.055214293
13	0xbcc85d7f	-0.024458645
14	0x3dcaa3cd	0.09894524
15	0x3bc69ab9	0.006060925
16	0x3e16719b	0.14691775
17	0x3e165fa8	0.14684927
18	0x3d2a7184	0.041612163
19	0x3b78ef64	0.0037984485
20	0x3d87d737	0.06632846
21	0x3d86ceca	0.06582411
22	0xbda176a4	-0.07883957
23	0xbdae0ceb	-0.08498558
24	0x3c62d044	0.0138436
25	0x3d9fd187	0.07803636
26	0x3dae0ddf	0.084987395
27	0x3d38ed55	0.045148212
28	0x3da86571	0.082224734
29	0x3da7e6cf	0.0819832
30	0xbc058939	-0.008150392
31	0x3d9688b3	0.07350292
32	0x3d95b748	0.07310349
33	0x3d12dd86	0.035855792
34	0x3d23fee2	0.040037997
35	0x3d1d902c	0.03846757
36	0xbc9e7964	-0.019344993
37	0x3d94edcc	0.07271919
38	0xbd4fd6a8	-0.05074182
39	0xbdb78628	-0.08961135
40	0xbd0e14a9	-0.03468767
41	0x3dc3a80f	0.09553539
42	0x3d934f87	0.07192903
43	0xbd47b37b	-0.04875515
44	0x3dac55c7	0.08414798
45	0x3de35c53	0.11101594
46	0x3daa6528	0.08320075
47	0xbd5ab80b	-0.053398173
48	0xbdfa217f	-0.1221342
49	0xbc250555	-0.010072072
50	0xbd18ea8a	-0.03733305
51	0xbd823168	-0.0635708
52	0xbc073952	-0.008253412
53	0x3d157be3	0.0364951
54	0xbdd81fb0	-0.10552919
55	0x3d880bb9	0.06642861
56	0x3db5b0c6	0.088716075
57	0xbda6139b	-0.08109208
58	0x3d3307e6	0.043708704
59	0xbe0d9704	-0.13827139
60	0x3cacef42	0.02111018
61	0xbd95f70d	-0.07322512
62	0x3da3de85	0.080014266
63	0xbd1c1c97	-0.038113203

backbone.features.1.running_var f4 [64]
0	0x3d958db6	0.0730242
1	0x3d270f1f	0.040785905
2	0x3d7305e5	0.059331793
3	0x3d409e08	0.04702571
4	0x3db8f489	0.090310164
5	0x3de62d56	0.11239116
6	0x3e0dbb02	0.13840869
7	0x3dc8892c	0.097917885
8	0x3d31d3e8	0.04341498
9	0x3d688f73	0.05677743
10	0x3d9b5a11	0.07585538
11	0x3d28d677	0.041220155
12	0x3d515537	0.051106658
13	0x3d9b57d4	0.07585111
14	0x3d2c3773	0.042045068
15	0x3d096a94	0.033548906
16	0x3d4b4a5a	0.049631454
17	0x3d0713b2	0.032977767
18	0x3d59cb0e	0.053172164
19	0x3d0c0d5e	0.034192435
20	0x3d482e66	0.048872374
21	0x3d9569d6	0.07295577
22	0x3de2ec17	0.11080187
23	0x3db7f820	0.08982873
24	0x3d7ea511	0.06216914
25	0x3d2449c8	0.040109426
26	0x3d8ab9e4	0.06773737
27	0x3d3a622e	0.045503788
28	0x3cea0a9f	0.028569518
29	0x3d20cf6a	0.039260305
30	0x3d26ea45	0.04075076
31	0x3d882952	0.06648506
32	0x3cbc6eb7	0.023002012
33	0x3d440548	0.0478566
34	0x3d147ed4	0.036253765
35	0x3ce42155	0.027847925
36	0x3db0f277	0.086399965
37	0x3cf1be26	0.029509615
38	0x3cde5fee	0.027145352
39	0x3d3f276f	0.046668466
40	0x3d4fdddf	0.050748702
41	0x3d60a967	0.054849055
42	0x3ca524f8	0.02015923
43	0x3e064a26	0.13114223
44	0x3d3dc09c	0.046326265
45	0x3d6eb12c	0.058274433
46	0x3d9c2cdc	0.07625744
47	0x3d4e94c1	0.05043483
48	0x3d70605a	0.058685638
49	0x3d11c406	0.035587333
50	0x3d61dd78	0.05514285
51	0x3d40f78b	0.047111075
52	0x3d7d8da2	0.06190265
53	0x3d19bdd3	0.037534546
54	0x3d63f5d9	0.05565438
55	0x3d10da79	0.0353646
56	0x3d96b597	0.07358854
57	0x3cd13f96	0.025543015
58	0x3cdfbe33	0.027312374
59	0x3ca6700f	0.020317106
60	0x3da7574c	0.081709474
61	0x3d11cbb4	0.035594657
62	0x3dde1b60	0.10845065
63	0x3c9aa05a	0.01887529

backbone.features.4.weight f4 [64, 64, 7]
0	0xbcfbac3a	-0.030721772
1	0xbd25fb0b	-0.040522616
2	0xbcc37311	-0.023858579
3	0xbca73a57	-0.02041356
4	0xbc0b5c6e	-0.008505924
5	0x3c1c5420	0.009541541
6	0x3ac79ec0	0.0015229806
7	0xbd1db81c	-0.03850566
8	0xbc676352	-0.014122801
9	0xba8082a8	-0.0009804564
10	0x3c8c865c	0.017153911
11	0x3ccb13a3	0.024789637
12	0x3cc6939b	0.024240306
13	0x3c5b3cca	0.013381192
14	0xbe05c884	-0.13064772
15	0xbde5e361	-0.1122501
16	0xbe07a656	-0.13247046
17	0xbe01db9a	-0.12681428
18	0xbe02b588	-0.12764561
19	0xbde48df3	-0.11159887
20	0xbe061df3	-0.13097362
21	0xbdb4d6c2	-0.08830024
22	0xbdb28180	-0.087161064
23	0xbdd37574	-0.10325137
24	0xbddf0162	-0.108889356
25	0xbdd78356	-0.10523097
26	0xbdc29e93	-0.09502902
27	0xbdbc1392	-0.0918342
28	0x3da74a65	0.081684865
29	0x3d81dc72	0.06340875
30	0x3d8068e6	0.06270008
31	0x3da26bf0	0.07930744
32	0x3d809480	0.06278324
33	0x3db843b5	0.08997289
34	0x3d9f1f0b	0.07769593
35	0xbcf83589	-0.030298965
36	0xbbe819ab	-0.007083138
37	0xbcb1f1fe	-0.021721836
38	0xbc5678c8	-0.01309032
39	0xbd1e712b	-0.038682144
40	0xbd13fd11	-0.036130015
41	0xbcea631a	-0.028611708
42	0xbd2c2315	-0.042025644
43	0xbd0c8dc8	-0.0343149
44	0xbcd05005	-0.025428781
45	0xbd2f3247	-0.042772558
46	0xbd32b9e1	-0.0436343
47	0xbd2df117	-0.04246625
48	0xbcd199fc	-0.02558612
49	0xbd33bb2c	-0.043879673
50	0xbd1271db	-0.035753112
51	0xbbc36480	-0.0059629083
52	0xbc336c42	-0.010951104
53	0x3b5c5365	0.0033619043
54	0xbcc217f2	-0.023693059
55	0xbd059304	-0.03261091
56	0xbd08891d	-0.033333886
57	0xbd22a606	-0.039709114
58	0xbd4e8a53	-0.050424885
59	0xbd510cc1	-0.051037554
60	0xbd352b27	-0.044230606
61	0xbcd9f326	-0.0266052
62	0xbc81d808	-0.015850082
63	0x3cf01f4f	0.029311804
64	0x3cb748db	0.022373607
65	0x3d230e04	0.03980829
66	0x3d1d03bb	0.038333636
67	0x3d23864b	0.039922994
68	0x3d6cd7ca	0.05782298
69	0x3d76dfcb	0.06027202
70	0xbd819783	-0.06327727
71	0xbd10f1a0	-0.03538668
72	0xbcc47b87	-0.023984684
73	0xbcaed27d	-0.021340603
74	0xbc7f9d83	-0.015601519
75	0xbd1351b4	-0.03596659
76	0xbc89eded	-0.016837085
77	0xbd5fa4fc	-0.0546007
78	0xbd349236	-0.04408475
79	0xbd18c1c6	-0.03729417
80	0xbd0db37e	-0.034595005
81	0xbd1e5f39	-0.03866503
82	0xbce781ad	-0.028260076
83	0xbc8e8fd4	-0.017402567
84	0xbda942bb	-0.08264681
85	0xbd83a1a8	-0.06427318
86	0xbd59d4c0	-0.05318141
87	0xbd8add06	-0.06780438
88	0xbd1c05af	-0.038091358
89	0xbd3984c3	-0.045292627
90	0xbd2d3f68	-0.042296797
91	0x3cb71e87	0.022353424
92	0x3cfaa613	0.030596768
93	0x3d041494	0.032246187
94	0x3d648d1d	0.05579864
95	0x3d507235	0.050890166
96	0x3d6df694	0.058096483
97	0x3d7fcd72	0.062451787
98	0x3c8d96c5	0.017283807
99	0x3cb05765	0.021526048
100	0x3c8d5959	0.017254518
101	0x3ba727c8	0.005101178
102	0x3c5710a2	0.013126524
103	0x3cab036f	0.02087566
104	0x3b5556ee	0.0032553035
105	0xbdf1eff3	-0.11813345
106	0xbde61ea0	-0.1123631
107	0xbddb3c8c	-0.10704908
108	0xbdb25c2f	-0.08708989
109	0xbd848165	-0.064699925
110	0xbd9907f7	-0.07472222
111	0xbdb952ac	-0.090489715
112	0x3cd9add3	0.026572144
113	0x3ca16fe0	0.019706666
114	0x3d47d1dd	0.048784126
115	0x3d54f6fe	0.051993363
116	0x3d9555bb	0.072917424
117	0x3d6d794a	0.057977
118	0x3d57100d	0.05250554
119	0xbc9b60eb	-0.018967113
120	0x3bd89f55	0.0066107907
121	0x3c4bcb58	0.012438618
122	0xbbfa544c	-0.0076394435
123	0xbc4930d9	-0.012279713
124	0xbcac8cd8	-0.021063253
125	0xbab8db40	-0.0014103428
126	0x3deafc6e	0.114739284
127	0x3dd8bf25	0.10583333
128	0x3dba2eb3	0.090909384
129	0x3dcf149b	0.10111352
130	0x3da23265	0.07919768
131	0x3dd0d553	0.10196938
132	0x3dc8d8e5	0.09806994
133	0x3cf55323	0.02994687
134	0x3c161488	0.0091601685
135	0x3ccb27ee	0.024799313
136	0x3c9f10ee	0.019417252
137	0x3d0ff238	0.035143107
138	0x3d205c04	0.039150253
139	0x3cca2d80	0.0246799
140	0x3c8ca23e	0.017167207
141	0x3d213941	0.039361242
142	0x3ce12d6b	0.027487477
143	0x3d1c34ae	0.038136177
144	0x3d2d66ae	0.04233425
145	0x3d4c7800	0.04991913
146	0x3d3e5160	0.046464324
147	0x3df2f792	0.118636265
148	0x3e065a5a	0.13120404
149	0x3e181cc5	0.14854725
150	0x3dd9b178	0.106295526
151	0x3df1f3c9	0.118140765
152	0x3ded4951	0.115862496
153	0x3e09fd85	0.13475616
154	0xbceac03e	-0.028656121
155	0xbc6aed2a	-0.014338771
156	0xbc181d39	-0.009284311
157	0xbc11e621	-0.008904965
158	0xbb51fcdb	-0.0032041583
159	0xbca37f90	-0.019958287
160	0xbc4c29ad	-0.012461108
161	0x3d14c2a4	0.036318436
162	0x3d871ba3	0.06597068
163	0x3d8b138b	0.06790837
164	0x3d460be5	0.048351187
165	0x3d624936	0.0552456
166	0x3d87df3d	0.06634376
167	0x3d483111	0.04887492
168	0x3bfab58b	0.007651036
169	0x3c8e2fdc	0.017356806
170	0x3cafd372	0.02146313
171	0x3cd9152c	0.026499353
172	0x3d04c069	0.03241006
173	0x3d410f33	0.047133636
174	0x3d9967f1	0.074905284
175	0xbd9f71a8	-0.0778535
176	0xbd80ba84	-0.06285575
177	0xbd0b25c0	-0.033971548
178	0xbcd6bff8	-0.026214585
179	0xbc3c867b	-0.011506672
180	0xba774861	-0.00094330875
181	0x3b66f3fb	0.0035240639
182	0xbd9aa55a	-0.075510696
183	0xbd9177f1	-0.07102955
184	0xbd50d57c	-0.050984845
185	0xbd41a2d5	-0.04727443
186	0xbd6735cf	-0.0564478
187	0xbd65c13a	-0.05609248
188	0xbd6b7d70	-0.057492673
189	0xbd8d6d2c	-0.069055885
190	0xbd616e15	-0.055036623
191	0xbd7b91da	-0.06141839
192	0xbd465b0b	-0.04842667
193	0xbd4e1981	-0.05031729
194	0xbd1e0f3e	-0.038588755
195	0xbd49592d	-0.04915731
196	0xbdbbd73f	-0.09171914
197	0xbd9fd139	-0.07803578
198	0xbd9d81da	-0.07690783
199	0xbdb69354	-0.08914819
200	0xbdb4fe28	-0.08837539
201	0xbdab0c60	-0.0835197
202	0xbdb30671	-0.08741463
203	0x3d4bb476	0.049732648
204	0x3d34f036	0.044174396
205	0x3d19f43b	0.037586432
206	0x3d1bc812	0.0380326
207	0x3d16b33a	0.036792018
208	0x3d17420f	0.036928233
209	0x3ce2c46c	0.027681552
210	0xbd11246d	-0.03543513
211	0xbd2027b0	-0.03910035
212	0xbcfba0a4	-0.030716248
213	0xbcdf89a5	-0.027287314
214	0xbd0c830e	-0.03430467
215	0xbd0d3a67	-0.034479525
216	0xbc9e8b71	-0.0193536
217	0xbc096cb8	-0.008387737
218	0xbc964b7a	-0.018346537
219	0xbc19ed9b	-0.009395028
220	0xbc20dd55	-0.009818395
221	0x3b534a85	0.0032240462
222	0xbc4c2032	-0.012458848
223	0xbb6e76b5	-0.0036386673
224	0xbd2ca6cc	-0.042151257
225	0xbd133c3e	-0.035946123
226	0xbd576884	-0.05258991
227	0xbd457b76	-0.048213445
228	0xbd60e696	-0.054907404
229	0xbd311282	-0.04323054
230	0xbd156963	-0.036477458
231	0x3d90857b	0.070567094
232	0x3d72a09a	0.059235193
233	0x3d890f17	0.06692331
234	0x3d8e6222	0.06952311
235	0x3d40878c	0.047004268
236	0x3d4f7204	0.050645843
237	0x3d8fac0d	0.07015238
238	0xbc2f09f4	-0.010683525
239	0xbba6f2e9	-0.005094875
240	0x3ad4aebd	0.0016226392
241	0x3c4a1e3c	0.01233631
242	0x3c9bf356	0.01903693
243	0x3cd6efdd	0.026237423
244	0x3cf6b978	0.030117735
245	0xbd0817c0	-0.033225775
246	0xbce2e040	-0.027694821
247	0xbc7481c6	-0.0149235185
248	0xbb4e5692	-0.0031484705
249	0xbc190d8d	-0.00934161
250	0x3b4088b2	0.0029378352
251	0x3b65bbc9	0.0035054556
252	0x3d0cf6d3	0.034415077
253	0x3c0c317e	0.008556722
254	0x3d094c46	0.033520006
255	0x3c4e9e86	0.012611037

backbone.features.4.bias f4 [64]
0	0xbba0f7bd	-0.004912345
1	0xbd7cec00	-0.061748505
2	0xbd1289f8	-0.03577611
3	0xbd8bf20d	-0.06833277
4	0xbce738d9	-0.02822535
5	0xbc42858d	-0.011872661
6	0x3d04afd9	0.032394264
7	0x3d519f68	0.051177412
8	0x3bda3d57	0.0066601443
9	0xbc30b963	-0.010786387
10	0x3b34a4af	0.002756398
11	0x3cec0c8d	0.028814578
12	0xbcb1326a	-0.021630485
13	0x3d0222c3	0.031771433
14	0x3d164ec4	0.03669621
15	0xbcf433fc	-0.029809944
16	0xbd49641e	-0.049167745
17	0x3c8c5f37	0.017135246
18	0x3c3da7f3	0.011575687
19	0xbd201327	-0.039080765
20	0x3c5ff728	0.0136697665
21	0x3cb90dd7	0.022589607
22	0xbad8190b	-0.0016486956
23	0xbc0b4325	-0.008499895
24	0xbbdcf613	-0.0067432015
25	0xbac011c1	-0.0014653729
26	0xbc37085c	-0.011171427
27	0x3d30790b	0.043084186
28	0x3d16fa53	0.03685982
29	0x3c3dba6f	0.011580094
30	0x3c6b218e	0.014351262
31	0x3d2f79ca	0.042840756
32	0xbcdbaf1f	-0.026816903
33	0x3ccc09e0	0.024907053
34	0xbd777b73	-0.060420465
35	0xbb3f2130	-0.0029164068
36	0xbc272731	-0.010202215
37	0x3d6d87c6	0.05799081
38	0xbd14c6a6	-0.03632226
39	0x3cebd4e7	0.028788043
40	0x3d4d603f	0.050140616
41	0x3d4a7741	0.049430136
42	0x3d0072c3	0.031359445
43	0x3cb28cad	0.021795595
44	0xbb24f88b	-0.0025172557
45	0xbd2a294e	-0.041543297
46	0xbc06501e	-0.008197812
47	0xbcb5c641	-0.022189261
48	0x3c55bec1	0.013045968
49	0x3d3ad47d	0.0456128
50	0xb9f2c8cb	-0.0004630744
51	0xbcaff300	-0.021478176
52	0x3d0426e2	0.032263644
53	0x3d929526	0.07157354
54	0xbcb78a8a	-0.022404928
55	0x3cd2ad1d	0.025717312
56	0x3d51b5a6	0.051198624
57	0xbc2e58a8	-0.0106412545
58	0xbd49b0e6	-0.04924097
59	0x3d6f8b17	0.058482256
60	0xbb197e73	-0.0023421317
61	0x3d1a795c	0.037713394
62	0xbbff4102	-0.007789732
63	0xbca63001	-0.020286562

backbone.features.5.weight f4 [64]
0	0x3fc0db75	1.5066973
1	0x3fb46bd1	1.4095403
2	0x3fb3b01f	1.4038123
3	0x3fb996af	1.449911
4	0x3fc61ccd	1.5477539
5	0x3fb533e9	1.4156467
6	0x3faeda4e	1.3660371
7	0x3fa795cc	1.3092589
8	0x3fb39b75	1.4031817
9	0x3fad4d8d	1.3539292
10	0x3fbadd0b	1.4598707
11	0x3fb252ca	1.3931515
12	0x3fa22dc1	1.2670213
13	0x3fb8a282	1.4424593
14	0x3fbc9a21	1.4734536
15	0x3fbf81f6	1.4961536
16	0x3fb417db	1.406978
17	0x3fc01bcd	1.5008484
18	0x3fb8859f	1.4415778
19	0x3fb2f303	1.3980411
20	0x3fa6704a	1.3003018
21	0x3fb76576	1.4327838
22	0x3fa9d70d	1.3268753
23	0x3fa942cc	1.322351
24	0x3fa92738	1.3215094
25	0x3fc6a624	1.5519452
26	0x3fc610d1	1.5473882
27	0x3fa9cbb0	1.3265285
28	0x3fa8f4df	1.3199729
29	0x3fb1968a	1.3874066
30	0x3fa97393	1.3238395
31	0x3faeaa9e	1.3645818
32	0x3fbae244	1.4600301
33	0x3fb884d6	1.4415538
34	0x3fbdd2c7	1.4829949
35	0x3fc055b1	1.5026151
36	0x3fb2c3ab	1.3965963
37	0x3fdd27c6	1.7277763
38	0x3fbda24e	1.4815156
39	0x3fb94da1	1.4476815
40	0x3fb6f2fe	1.4292905
41	0x3fb3f880	1.4060211
42	0x3fa8dda4	1.3192639
43	0x3fb49a60	1.4109612
44	0x3fbf4661	1.4943353
45	0x3fc3422a	1.5254567
46	0x3fab7171	1.3393995
47	0x3fc59e35	1.5438906
48	0x3fb1cf05	1.3891302
49	0x3fa70849	1.3049403
50	0x3fb2bdf9	1.3964225
51	0x3fad9cee	1.3563516
52	0x3faf413c	1.3691783
53	0x3fb6fbf2	1.4295638
54	0x3fb66cf3	1.4251999
55	0x3fbfba35	1.4978701
56	0x3fb3538f	1.4009875
57	0x3fa8169d	1.3131901
58	0x3fb74855	1.4318949
59	0x3fadd13a	1.3579476
60	0x3fb0dd8c	1.3817611
61	0x3fb7be88	1.435502
62	0x3faafd4f	1.3358554
63	0x3fb91bc2	1.4461596

backbone.features.5.bias f4 [64]
0	0x3e2a3f3d	0.16625686
1	0x3dc6158b	0.09672078
2	0x3de38bca	0.11110647
3	0x3e22d61d	0.1590199
4	0x3dc4605a	0.0958869
5	0x3e66d261	0.2254119
6	0x3e0ae6c1	0.13564588
7	0x3e48d842	0.19613746
8	0x3e2c5d6e	0.16832516
9	0x3e058928	0.13040602
10	0x3e05ff08	0.13085568
11	0x3e06f14e	0.13177988
12	0x3dd64108	0.104616225
13	0x3e6395f7	0.22225176
14	0x3e0cebb9	0.13761796
15	0x3d685c55	0.05672868
16	0x3d8769c0	0.06611967
17	0x3e0e2c0e	0.13883993
18	0x3e05c7a7	0.13064443
19	0x3da5d326	0.08096914
20	0x3dfbacc3	0.12288811
21	0x3e2c6e29	0.16838898
22	0x3ddfd024	0.109283715
23	0x3dce4832	0.10072364
24	0x3dd6f76f	0.10496413
25	0x3e4d9685	0.2007695
26	0x3dd822bf	0.10553502
27	0x3d9606ec	0.07325539
28	0x3df5693b	0.11982962
29	0x3e017209	0.12641157
30	0x3e05aebe	0.1305494
31	0x3e312c25	0.17301996
32	0x3e40e69a	0.18837968
33	0x3e2ecddf	0.17070721
34	0x3e494cb0	0.1965816
35	0x3e4c834c	0.19971961
36	0x3e607f85	0.21923645
37	0x3de85a81	0.11345387
38	0x3e10d23f	0.14142703
39	0x3d05596b	0.03255598
40	0x3e6b1462	0.22956994
41	0x3dfcd020	0.12344384
42	0x3e1fde9e	0.15612265
43	0x3db02cb0	0.086022735
44	0x3e41eb86	0.18937501
45	0x3dd0af79	0.10189719
46	0x3dfb75f8	0.1227836
47	0x3da57117	0.08078211
48	0x3e13b28f	0.14423583
49	0x3d81db22	0.063406244
50	0x3e4be9d4	0.19913417
51	0x3db9e9c0	0.090777874
52	0x3c0d39a4	0.0086197
53	0x3e231ba4	0.15928513
54	0x3e18f701	0.14937975
55	0x3e53ada9	0.20671715
56	0x3df32dcf	0.11873972
57	0x3e48ee74	0.19622213
58	0x3e25cf9e	0.16192481
59	0x3dff4623	0.124645494
60	0x3df3c12a	0.119020775
61	0x3e3da065	0.18518217
62	0x3e079614	0.13240844
63	0x3e234e60	0.15947866

backbone.features.5.running_mean f4 [64]
0	0xbb9c2836	-0.0047655357
1	0xbdcf779c	-0.101302356
2	0xbf04ae5b	-0.51828545
3	0xbe9fef9c	-0.31237495
4	0x3e3ae11d	0.18249936
5	0xbdc87517	-0.09787958
6	0xbe873f41	-0.26415446
7	0x3e081004	0.1328736
8	0x3e18af52	0.1491063
9	0xbf199cfe	-0.60005176
10	0xbeccad45	-0.39975944
11	0xbf4ee892	-0.80823624
12	0xbebb8bcc	-0.36630094
13	0x3da35d44	0.079767734
14	0x3dc19005	0.09451298
15	0x3e87d956	0.26533002
16	0xbe635d4c	-0.22203559
17	0x3d02e1bd	0.031953562
18	0xbf2b010c	-0.6679847
19	0x3e0ba3fc	0.13636774
20	0xbe7b1f75	-0.24523719
21	0x3d5a1ef9	0.053252194
22	0xbed6f4ce	-0.41983646
23	0xbea3e3bc	-0.32009685
24	0xbe9ce612	-0.3064428
25	0xbd666d86	-0.056256793
26	0xbe4e7f28	-0.20165694
27	0x3f029260	0.510046
28	0xbe4dcabc	-0.20096868
29	0xbef27af7	-0.4735944
30	0xbecf01a1	-0.4043093
31	0xbf1e8640	-0.619236
32	0x3deba481	0.11505986
33	0x3ec71c13	0.38888606
34	0xbe67710d	-0.22601719
35	0x3ea4b0c6	0.32166117
36	0xbccf8186	-0.025330316
37	0xbd035056	-0.032059036
38	0x3e10ab67	0.14127885
39	0x3d451fb0	0.048125923
40	0x3d870b64	0.065939695
41	0xbede3757	-0.43401596
42	0xbc3dcda8	-0.011584677
43	0xbe62cd51	-0.22148634
44	0xbd0bac5e	-0.03409993
45	0xbae01e4f	-0.0017098876
46	0xbef92955	-0.48664346
47	0xbda59da8	-0.08086711
48	0xbeb34ce7	-0.3501961
49	0xbe458761	-0.19289924
50	0x3d0cd452	0.034382172
51	0x3e6230c4	0.22088915
52	0x3e57bef3	0.21068935
53	0x3ebaa361	0.36452773
54	0x3eca2c60	0.3948698
55	0x3e897fcf	0.26855323
56	0xbee00dc0	-0.4376049
57	0x3e850e70	0.25987577
58	0xbf4259e8	-0.75918436
59	0x3ed531cf	0.41639563
60	0x3ec64b02	0.387291
61	0xbe112cd6	-0.1417726
62	0xbf2e62df	-0.68119615
63	0x3e4c0bbf	0.19926356

backbone.features.5.running_var f4 [64]
0	0x3fab6507	1.3390206
1	0x3faa05e1	1.3283044
2	0x3f562ecc	0.83665156
3	0x3f4ed68e	0.80796134
4	0x3f8db5f1	1.1071149
5	0x3f4f5319	0.8098617
6	0x3f381274	0.7190316
7	0x3f391b47	0.72307247
8	0x3f6a4961	0.9151822
9	0x3f2de22d	0.6792324
10	0x3f54339c	0.8289125
11	0x3f43cff6	0.764892
12	0x3f229587	0.6350941
13	0x3f7fad1c	0.9987352
14	0x3f882579	1.0636436
15	0x3f7de34a	0.9917494
16	0x3f986d13	1.1908287
17	0x3f878578	1.0587606
18	0x3f5cd164	0.86257005
19	0x3f94df8d	1.1630722
20	0x3f7a92d7	0.9788031
21	0x3f81249f	1.0089301
22	0x3f5a0f01	0.85179144
23	0x3f4b9353	0.79521674
24	0x3f3c618a	0.7358633
25	0x3fa7ce7d	1.310989
26	0x3fa7384a	1.3064053
27	0x3f8b2da0	1.0873299
28	0x3f84c183	1.0371555
29	0x3f8f5fc9	1.1201106
30	0x3f820360	1.015728
31	0x3f711216	0.9416822
32	0x3f5da489	0.86579186
33	0x3f6a4b56	0.91521204
34	0x3f5d5882	0.8646318
35	0x3f801741	1.0007097
36	0x3f5689b7	0.83803886
37	0x3fc44fcb	1.5336851
38	0x3f9764b4	1.1827607
39	0x3f809fa7	1.0048722
40	0x3f85c478	1.0450583
41	0x3f52c3d0	0.82330036
42	0x3f409401	0.75225836
43	0x3f71addf	0.9440593
44	0x3f8e5d18	1.112216
45	0x3f91cdf1	1.1390973
46	0x3f704007	0.938477
47	0x3f96d92c	1.1785026
48	0x3f8f6024	1.1201215
49	0x3f484625	0.7823203
50	0x3f598886	0.84973943
51	0x3f55fd62	0.83589756
52	0x3f85452d	1.0411736
53	0x3f820b22	1.0159647
54	0x3f5e18f7	0.86756843
55	0x3f6fdebf	0.9369926
56	0x3f5a925a	0.85379565
57	0x3f3dc168	0.7412324
58	0x3f73deaa	0.95261633
59	0x3f528728	0.8223748
60	0x3f6a0f4f	0.9142961
61	0x3f645c10	0.89202976
62	0x3f72b87f	0.9481277
63	0x3f85e39a	1.0460083

head.classifier.weight f4 [5, 64]
0	0xbe172143	-0.14758782
1	0x3e39dba3	0.18150191
2	0xbe2ccc12	-0.16874722
3	0x3eac81dd	0.33692828
4	0xbe88f3fc	-0.26748645
5	0x3e9987ac	0.29986322
6	0x3e97033f	0.29494664
7	0x3d546dd4	0.051862553
8	0xbe1f4a31	-0.15555646
9	0x3d5deb56	0.054179512
10	0xbe99d6d8	-0.30046725
11	0xbcebb06e	-0.028770652
12	0x3e172368	0.147596
13	0xbdb1ae80	-0.08675861
14	0xbe36e126	-0.17859325
15	0xbe849a17	-0.2589881
16	0x3e0699ce	0.1314461
17	0xbe2c1f9d	-0.16808935
18	0xbe3ed015	-0.18634064
19	0x3e5623c6	0.20912084
20	0xbe8e7eb7	-0.2783105
21	0xbe2b5573	-0.16731815
22	0xbe783d3a	-0.24242106
23	0xbe630e2a	-0.22173372
24	0xbe6f33d5	-0.23359616
25	0xbe0d8864	-0.1382156
26	0xbdc6ed9c	-0.09713289
27	0xbe1a5e32	-0.15074995
28	0xbe9a7807	-0.301697
29	0x3e6a8838	0.22903526
30	0xbe896e30	-0.2684188
31	0xbe1b9320	-0.15192842
32	0x3e934702	0.28765112
33	0x3e42e11e	0.19031188
34	0x3e55f320	0.20893526
35	0x3d976d0a	0.073938444
36	0x3e420d3d	0.18950363
37	0xbe890fab	-0.26769766
38	0xbe610f08	-0.2197839
39	0xbed01db5	-0.40647665
40	0x3c9e60ff	0.01933336
41	0xbea6e2bb	-0.32594857
42	0x3ebccbf2	0.36874348
43	0x3e6c2430	0.2306068
44	0xbd378020	-0.044799924
45	0xbe9b3304	-0.3031236
46	0xbda9ef9f	-0.08297657
47	0xbe83bd90	-0.25730562
48	0xbe6bd5f8	-0.23030841
49	0x3e35917f	0.17731284
50	0x3e83410a	0.25635558
51	0x3e9e83f8	0.3096006
52	0xbe9dc910	-0.3081746
53	0xbe24b6fc	-0.16085428
54	0x3e513c28	0.20433104
55	0xbcecd935	-0.028912166
56	0xbdde3f56	-0.10851924
57	0x3db07aea	0.08617194
58	0xbe0245ff	-0.12722014
59	0x3e9aeec3	0.30260286
60	0x3e8cbbdf	0.27487084
61	0x3e9e19e5	0.3087913
62	0xbe925b8f	-0.2858548
63	0xbe5a9c68	-0.21348727
64	0xbeed935c	-0.4640149
65	0x3e96ac2b	0.2942823
66	0xbd1382d6	-0.036013447
67	0x3d760352	0.06006176
68	0xbefd69b3	-0.49494705
69	0x3e77d1e5	0.24201162
70	0xbe6cc96e	-0.23123714
71	0xbe51a5ea	-0.20473447
72	0x3eaa32e7	0.3324196
73	0xbd6ced72	-0.057843633
74	0xbe531337	-0.20612799
75	0xbdaa7bd0	-0.083243966
76	0xbc4d40e9	-0.012527683
77	0x3e7cba6f	0.24680494
78	0x3ec6fc98	0.3886459
79	0xbeef5040	-0.46740913
80	0x3e1854b0	0.14876056
81	0xbe5090d7	-0.20367752
82	0xbd8d6789	-0.069045134
83	0xbe87b7c9	-0.26507404
84	0x3ee4d245	0.44691673
85	0x3ed765ee	0.42069954
86	0x3e82c2fb	0.25539383
87	0x3e13b608	0.14424908
88	0x3ec1bf35	0.37841192
89	0xbec028c3	-0.375311
90	0xbf0655aa	-0.52474463
91	0x3e056950	0.13028455
92	0x3ee2d391	0.44302037
93	0xbf0f8b16	-0.56071603
94	0x3ea88509	0.32913998
95	0x3e7e7aca	0.24851528
96	0x3eaee0e6	0.3415596
97	0xbe2a65b5	-0.1664036
98	0x3e0a62b0	0.13514209
99	0x3ea48e70	0.3213992
100	0xbe136668	-0.14394534
101	0xbedfbfd3	-0.43701038
102	0xbd927ffd	-0.07153318
103	0xbec33f5b	-0.38134274
104	0xbe132d1a	-0.14372674
105	0x3c2baf10	0.01047875
106	0xbd4474c2	-0.04796291
107	0x3e4329c6	0.19058904
108	0x3edc8184	0.43067563
109	0xbee42280	-0.4455757
110	0x3e79cb7d	0.24394031
111	0xbedd9700	-0.43279266
112	0x3edddcfb	0.43332657
113	0xbd246fb7	-0.040145602
114	0xbd037f6f	-0.032103952
115	0x3d00bea2	0.0314318
116	0xbe8251d7	-0.25453064
117	0xbe5bf8d5	-0.2148164
118	0xbe7e8f6e	-0.24859402
119	0xbd788e09	-0.06068233
120	0x3da7f43e	0.082008824
121	0xbe271f17	-0.16320454
122	0x3e1618ae	0.14657852
123	0xbe30e4ab	-0.1727473
124	0xbe5c854f	-0.21535228
125	0x3e8d80f0	0.27637434
126	0x3e81fea4	0.25389588
127	0xbe37b93b	-0.17941754
128	0xbe99acc1	-0.30014613
129	0x3e00c078	0.12573421
130	0x3ea7dbbc	0.32784832
131	0x3caff91d	0.021481091
132	0xbe2b3322	-0.16718724
133	0xbe92da49	-0.28682163
134	0x3cd57887	0.026058448
135	0xbeba3296	-0.3636672
136	0xbea9a747	-0.33135435
137	0x3e9bee16	0.30455083
138	0x3e8cb23d	0.27479735
139	0x3ebc1c0d	0.3674015
140	0x3d84ad0a	0.06478317
141	0xbec26823	-0.37970075
142	0xbe310a09	-0.17288984
143	0xbd9f71c6	-0.077853724
144	0x3e78fec5	0.24315937
145	0xbe85bc5b	-0.26120266
146	0x3ea5e404	0.32400525
147	0x3d5e8770	0.054328382
148	0xbd146583	-0.03622962
149	0xbeacfcf0	-0.33786726
150	0x3ec710ad	0.3887991
151	0x3ec339f4	0.38130152
152	0x3eac1c89	0.3361552
153	0xbe9c89a9	-0.30573776
154	0x3d21f211	0.039537493
155	0x3da5a5a7	0.08088236
156	0x3c02ba03	0.007978919
157	0x3d9f720f	0.07785427
158	0x3dbf6c55	0.093468346
159	0x3e29a6e3	0.16567568
160	0xbe0ea4b6	-0.1393002
161	0xbe46ad52	-0.19402054
162	0xbc6372cc	-0.01388235
163	0xbe4e3c1f	-0.20140122
164	0xbecb57ed	-0.3971552
165	0xbd4e6013	-0.050384592
166	0xbe7f2079	-0.24914731
167	0xbca15e5f	-0.01969832
168	0xbec66eee	-0.38756508
169	0x3e09aee9	0.13445629
170	0xbe29c6fd	-0.16579814
171	0x3e3b9f29	0.18322434
172	0xbe7c6423	-0.24647574
173	0xbe6e8ce2	-0.2329593
174	0x3b26c65d	0.0025447824
175	0xbdc3f945	-0.09569029
176	0x3e283e57	0.16430031
177	0x3eaef17b	0.3416861
178	0xbeba531b	-0.3639153
179	0x3d0c8b03	0.03431226
180	0x3e463ccb	0.19359128
181	0xbea6bcc4	-0.32565892
182	0xbe06bf51	-0.13158919
183	0xbea1bba7	-0.3158848
184	0x3edc439d	0.43020335
185	0xbebe0a4a	-0.37117225
186	0x3ebff294	0.3748976
187	0xbdd22021	-0.10260034
188	0xbd323ddb	-0.04351602
189	0xbe023d4d	-0.12718697
190	0x3e044a5e	0.12918994
191	0xbea54e10	-0.3228612
192	0x3eace531	0.3376861
193	0xbf02201c	-0.50830245
194	0xbeaafd48	-0.33396363
195	0xbf0fc84d	-0.5616501
196	0x3eda01b8	0.42579436
197	0xbef4087e	-0.4766273
198	0xbea9b0b6	-0.33142632
199	0x3d62ebaf	0.055400547
200	0x3d0cb629	0.03435341
201	0xbd7c79cd	-0.061639596
202	0x3e828eaa	0.2549947
203	0xbba7bb30	-0.00511875
204	0x3cf2c31e	0.029634055
205	0x3e448ac6	0.19193563
206	0xbf0c992e	-0.54921234
207	0x3ed3858c	0.41312826
208	0xbebf3f54	-0.37353003
209	0x3f0f01af	0.55861944
210	0xbd4f2d19	-0.050580118
211	0xbe2f78ee	-0.17135975
212	0x3dbfd755	0.09367243
213	0xbe41f851	-0.18942381
214	0xbdec2e0c	-0.1153222
215	0xbe96266e	-0.29326195
216	0xbe9145dd	-0.28373614
217	0x3f0f0f1d	0.55882436
218	0x3db9fd51	0.090815194
219	0xbdbf7cde	-0.093499884
220	0xbe6de80d	-0.23233052
221	0x3e9ed308	0.3102038
222	0xbe401e9e	-0.1876168
223	0xbe8c3731	-0.27385858
224	0xbf0c9b46	-0.5492443
225	0x3e15189a	0.14560166
226	0xbf0b1b97	-0.54338974
227	0xbe633fcd	-0.22192307
228	0x3e88a82c	0.26690805
229	0x3ede5402	0.43423468
230	0x3f0f8d60	0.56075096
231	0x3d8e712d	0.0695518
232	0x3e201d2a	0.15636125
233	0x3e485676	0.19564232
234	0x3dbba9a7	0.09163218
235	0xbf08a119	-0.53370816
236	0xbeaac1e1	-0.33351043
237	0x3ef04a64	0.46931756
238	0x3e922899	0.285466
239	0x3e965ac6	0.2936613
240	0xbdd708ea	-0.10499747
241	0xbd8991b7	-0.06717246
242	0x3ea5cf8b	0.32384905
243	0xbd3c3efe	-0.04595851
244	0x3ec39f26	0.38207358
245	0x3e7ee599	0.24892272
246	0x3ed50580	0.4160576
247	0x3eac171f	0.3361139
248	0xbc2156ea	-0.009847382
249	0xbdfae84c	-0.12251338
250	0x3e643262	0.22284845
251	0x3e4f75ba	0.20259753
252	0x3e049375	0.12946875
253	0xbedff4a0	-0.43741322
254	0xbde32205	-0.11090473
255	0x3eb29a65	0.3488342

head.classifier.bias f4 [5]
0	0x3d20ef19	0.03929052
1	0x3de99d03	0.11406901
2	0x3b72a51f	0.003702469
3	0xbd05bc38	-0.032650203
4	0x3d5a99e4	0.053369418

exp_avg f4 [64, 12, 7]
0	0xbb19466c	-0.0023387922
1	0xbb409097	-0.0029383057
2	0xbb559439	-0.0032589568
3	0xbb503aef	-0.0031773408
4	0xbb450434	-0.003006232
5	0xbb324f6e	-0.0027207988
6	0xbb20da32	-0.0024544117
7	0xbb097326	-0.0020973175
8	0xbb062f81	-0.0020475092
9	0xbb0726cf	-0.0020622497
10	0xbac877dd	-0.0015294511
11	0xba6be604	-0.00089988136
12	0xb9ad4617	-0.00033049352
13	0x3866c0d1	5.5015847e-05
14	0x397d4866	0.0002415493
15	0x3a69d9f4	0.0008920722
16	0x3a9cd05f	0.0011963955
17	0x3ad7ed33	0.0016473889
18	0x3b0a0a1f	0.0021063162
19	0x3b1ca849	0.0023904017
20	0x3b248197	0.0025101656
21	0x3b11682d	0.0022187338
22	0x3b237061	0.002493881
23	0x3b2e6dc2	0.0026615714
24	0x3b1a418c	0.0023537604
25	0x3afff144	0.0019526859
26	0x3ac7fd03	0.0015257898
27	0x3a9d4e30	0.0012001451
28	0xbaa8ef2e	-0.0012888664
29	0xbafacbb0	-0.001913419
30	0xbb11dd43	-0.0022257126
31	0xbb1e0505	-0.0024111879
32	0xbb276f07	-0.0025548355
33	0xbb2767ac	-0.002554397
34	0xbb2296b7	-0.0024809071
35	0xba7273af	-0.00092488056
36	0xba168cc4	-0.00057430216
37	0xb9e1614b	-0.00042987833
38	0x387d3637	6.0370392e-05
39	0x3a1ed44b	0.0006058856
40	0x3a87127a	0.0010305189
41	0x3aa869fd	0.001284897
42	0x3b6ae8f2	0.0035844413
43	0x3b81185e	0.0039396724
44	0x3b871eed	0.0041235597
45	0x3b8c4915	0.004281173
46	0x3b87eed9	0.004148346
47	0x3b5f3427	0.0034058185
48	0x3b3a89ee	0.002846356
49	0x3aeeac8f	0.0018209385
50	0x3b082fff	0.002078056
51	0x3b25b191	0.002528284
52	0x3b45bd8a	0.0030172789
53	0x3b357e5f	0.0027693731
54	0x3aa44a9a	0.001253444
55	0xb7931198	-1.7531958e-05
56	0x3ae3a85d	0.0017368902
57	0x3aeedafe	0.0018223224
58	0x3afc0868	0.001922858
59	0x3b261c79	0.002534656
60	0x3b29c1ed	0.0025902942
61	0x3abd534b	0.0014444379
62	0x3a3bd05f	0.00071645336
63	0xba661228	-0.0008776509
64	0xba8024ec	-0.0009776629
65	0xbab43b53	-0.001375059
66	0xba923ea1	-0.0011157581
67	0xba25f9cf	-0.0006331475
68	0x3869cd24	5.574258e-05
69	0x393f0809	0.00018218173
70	0xbb10e2a7	-0.0022107752
71	0xbb172b87	-0.0023066716
72	0xbb330e54	-0.0027321773
73	0xbb261d96	-0.0025347224
74	0xbafc5969	-0.001925272
75	0xb9e9654a	-0.0004451669
76	0x39e1f250	0.0004309588
77	0xbb398ebc	-0.0028313836
78	0xbb2ea4c0	-0.0026648492
79	0xbb245177	-0.002507297
80	0xbb080d12	-0.0020759744
81	0xbab817ca	-0.0014045176
82	0xb79deb76	-1.8825504e-05
83	0x3a808bd3	0.0009807296
84	0xb9d2537b	-0.0004011652
85	0xba159999	-0.0005706787
86	0xb8af092f	-8.346361e-05
87	0x38e5d1fc	0.000109586836
88	0xba373c33	-0.00069898664
89	0xbab6839f	-0.0013924724
90	0xbabe1187	-0.0014501073
91	0x39f3f014	0.00046527444
92	0xb91ef384	-0.00015158771
93	0xba299c1f	-0.0006470102
94	0xba626504	-0.00086362683
95	0xba554c86	-0.0008136708
96	0xba0f0d64	-0.00054570124
97	0x38d2a404	0.000100441306
98	0x3a631b34	0.00086634164
99	0x39dd0577	0.00042156476
100	0xba135f4f	-0.0005621807
101	0xba7eac26	-0.0009714983
102	0xb8ec960b	-0.000112813046
103	0x3a5e2278	0.0008473764
104	0x3acb76e3	0.0015523102
105	0xb81215d8	-3.4829456e-05
106	0x39bc8919	0.000359603
107	0x39bfe807	0.00036603233
108	0x39c5297f	0.00037605685
109	0x3a461c52	0.00075573206
110	0x3a7e25a2	0.0009694939
111	0x3a31048c	0.00067526917
112	0xba263003	-0.0006339552
113	0xba01b16e	-0.00049473986
114	0x397c1263	0.00024039442
115	0x3a0ea011	0.0005440722
116	0xb9983076	-0.00029027805
117	0xba9287ef	-0.0011179427
118	0xbac48614	-0.0014993572
119	0x3a2e0b3a	0.0006639246
120	0x390e766f	0.00013586295
121	0xba1dac3b	-0.0006014739
122	0xba6f3eff	-0.00091265136
123	0xb9f07e29	-0.00045870364
124	0x3924101e	0.00015646263
125	0x3a59b40e	0.00083047233
126	0x3a113c8b	0.00055403326
127	0x3a728fce	0.0009252996
128	0x3a8fb58f	0.0010964143
129	0x3a96e57e	0.0011512486
130	0x3ac7aed3	0.0015234597
131	0x3afd3efd	0.001932114
132	0x3b05f72d	0.0020441518
133	0xbaedbb69	-0.0018137518
134	0xbacec549	-0.0015775348
135	0xba21fc6c	-0.00061792764
136	0x39602168	0.0002137475
137	0x3a05f995	0.0005110738
138	0x39634fb9	0.00021678106
139	0x3a02c251	0.0004988062
140	0xba6808c6	-0.0008851405
141	0xbaa0782e	-0.0012242848
142	0xba483852	-0.0007637787
143	0xb987f618	-0.0002593256
144	0xb9a9b6de	-0.0003237044
145	0xba0244aa	-0.0004969338
146	0x39bdb47b	0.00036183358
147	0xbb9e4fa4	-0.0048312712
148	0xbba84efc	-0.005136369
149	0xbbafce7f	-0.0053651924
150	0xbbca8d99	-0.0061814305
151	0xbbeb066e	-0.0071723973
152	0xbbf34f12	-0.0074251974
153	0xbbcdca4a	-0.0062802183
154	0x39957cf8	0.00028512604
155	0xb8245b86	-3.9185885e-05
156	0xb9b76b29	-0.0003498432
157	0xbac52fbc	-0.0015044133
158	0xbb423a4c	-0.0029636798
159	0xbb685f6f	-0.0035457273
160	0xbb2e3e39	-0.002658738
161	0xbab491c3	-0.001377635
162	0xbac1c833	-0.0014784395
163	0xbac5a6f7	-0.0015079667
164	0xbb075e1d	-0.002065546
165	0xbb3e820a	-0.0029069209
166	0xbb4e8693	-0.0031513318
167	0xbb252ccd	-0.0025203705
168	0x39ecfd67	0.00045202227
169	0x3b5e7f88	0.0033950526
170	0x3bbc2ae8	0.0057424195
171	0x3bbcd158	0.0057622604
172	0x3b9393d2	0.0045037055
173	0x3b7077d5	0.003669252
174	0x3aa3915f	0.0012479237
175	0x3ae432eb	0.0017410194
176	0x3b0ae092	0.0021190983
177	0x3b2e6f4c	0.002661663
178	0x3af5fdbe	0.0018767638
179	0xb9dd10a2	-0.00042164797
180	0xbb4181d2	-0.0029526842
181	0xbb9c8795	-0.004776905
182	0x3aa91d81	0.001290247
183	0xbaa6dc9c	-0.0012730542
184	0xbb49e9e3	-0.0030809573
185	0xbb7e65a1	-0.00388179
186	0xbba1a36e	-0.0049328124
187	0xbbd8dd70	-0.0066181943
188	0xbbc52e57	-0.006017487
189	0xba90d9b2	-0.0011051206
190	0xbb34a813	-0.0027566
191	0xbb89c519	-0.004204404
192	0xbb7a634b	-0.0038206156
193	0xbb066973	-0.002050963
194	0xb9c02c5c	-0.00036654144
195	0x3ae62396	0.0017558213
196	0xb9d9dd31	-0.00041554266
197	0x3b18a886	0.0023293807
198	0x3b909896	0.004412721
199	0x3b9e2860	0.0048265904
200	0x3b9ae7a6	0.0047273217
201	0x3ba8fbe6	0.0051569818
202	0x3b6eaf3a	0.003642036
203	0x3ac75b1f	0.0015209651
204	0x39def052	0.00042522192
205	0xb957aa5d	-0.00020567463
206	0xba835601	-0.0010020138
207	0xbb2f0f40	-0.002671197
208	0xbb9cba7c	-0.004782973
209	0xbbb0bdfe	-0.0053937426
210	0xbb899e06	-0.004199746
211	0xbbe2fb9d	-0.0069269673
212	0xbc1c8d59	-0.009555184
213	0xbc06e036	-0.008232167
214	0xbb260ce9	-0.0025337285
215	0x3b5192ee	0.0031978446
216	0x3bce3f7e	0.00629419
217	0xbc40a1e8	-0.011757351
218	0xbc51b46a	-0.012799362
219	0xbc78562c	-0.015157264
220	0xbc61c9f1	-0.013781057
221	0xbbc2b181	-0.0059415703
222	0x3af716f0	0.001885144
223	0x3b707658	0.0036691632
224	0xbc3d1f23	-0.011543068
225	0xbc2d626f	-0.01058255
226	0xbc3ca6a1	-0.011514337
227	0xbc2f5460	-0.010701269
228	0xbb9f20dd	-0.0048562125
229	0x3a8aab78	0.0010579666
230	0x3ae228ee	0.001725463
231	0x3ba52ad6	0.005040507
232	0x3bde590b	0.006785517
233	0x3bfcdc83	0.0077167167
234	0x3c0619de	0.008184878
235	0x3c259a09	0.010107526
236	0x3c50de31	0.012748287
237	0x3c5cfd16	0.013488075
238	0xbc4bf2df	-0.012448042
239	0xbc250c56	-0.010073742
240	0xbbff2615	-0.007786522
241	0xbbf70c42	-0.007539303
242	0xbc1a44c3	-0.009415808
243	0xbc3ad047	-0.011402196
244	0xbc5f4011	-0.013626114
245	0x3a9c5d3f	0.0011929645
246	0x3b4d32e3	0.0031310848
247	0x3b986a9d	0.004651381
248	0x3b8aee26	0.0042398153
249	0x3a668d4a	0.00087948574
250	0xbb51f22e	-0.003203522
251	0xbbd3981f	-0.006457343
252	0xb9fac69b	-0.00047831688
253	0xbaa2c8fa	-0.0012419515
254	0xb959b52b	-0.00020762223
255	0x3b1aeab1	0.0023638422
